…
            activation='relu', padding='same')(layer)\nlayer = Dropout(0.5)(layer)\nlayer = Flatten()(layer)\nlayer = Dense(10, activation='linear')(layer)\noutput_tensor = Dense(units=1, activation='linear')(layer)\n\n\nmodel = Model(input_tensor, output_tensor)\nmodel.compile(loss='mean_squared_error', optimizer=optimizer, metrics=['mse', 'mae', 'mape'] )\nprint(model.summary())\n</code></pre>\n\n<p>which prints:</p>\n\n<pre><code>Layer (type)                 Output Shape              Param #   \n=================================================================\ninput_31 (InputLayer)        (None, 1, 4)              0         \n_________________________________________________________________\nconv1d_65 (Conv1D)           (None, 1, 32)             288       \n_________________________________________________________________\nconv1d_66 (Conv1D)           (None, 1, 64)             6208      \n_________________________________________________________________\ndropout_7 (Dropout)          (None, 1, 64)             0         \n_________________________________________________________________\nflatten_24 (Flatten)         (None, 64)                0         \n_________________________________________________________________\ndense_43 (Dense)             (None, 10)                650       \n_________________________________________________________________\ndense_44 (Dense)             (None, 1)                 11        \n=================================================================\nTotal params: 7,157\nTrainable params: 7,157\nNon-trainable params: 0\n</code></pre>\n\n<p>If I use <code>X_reshaped_2</code> as input data, I would create a model like this:</p>\n\n<pre><code>input_tensor = Input(shape=(4, 1))\nlayer = Conv1D(filters=32, kernel_size=2, activation='relu')(input_tensor)\nlayer = Conv1D(filters = 64, kernel_size=3, activation='relu')(layer)\nlayer = Dropout(0.5)(layer)\nlayer = Flatten()(layer)\nlayer = Dense(10, activation='linear' )(layer)\noutput_tensor = Dense(units=1, activation='linear')(layer)\n\n\nmodel = Model(input_tensor, output_tensor)\nmodel.compile(loss='mean_squared_error', optimizer=optimizer, metrics=['mse', 'mae', 'mape'] )\nprint(model.summary())\n</code></pre>\n\n<p>which prints:</p>\n\n<pre><code>Layer (type)                 Output Shape              Param #   \n=================================================================\ninput_34 (InputLayer)        (None, 4, 1)              0         \n_________________________________________________________________\nconv1d_71 (Conv1D)           (None, 3, 32)             96        \n_________________________________________________________________\nconv1d_72 (Conv1D)           (None, 1, 64)             6208      \n_________________________________________________________________\ndropout_8 (Dropout)          (None, 1, 64)             0         \n_________________________________________________________________\nflatten_27 (Flatten)         (None, 64)                0         \n_________________________________________________________________\ndense_49 (Dense)             (None, 10)                650       \n_________________________________________________________________\ndense_50 (Dense)             (None, 1)                 11        \n=================================================================\nTotal params: 6,965\nTrainable params: 6,965\nNon-trainable params: 0\n</code></pre>\n\n<p>I have tried both models on my data and both are to some extent desirable. </p>\n\n<p>My question is:</p>\n\n<ol>\n<li><p>How these models learn? Specially, the model which uses <code>X_reshaped_1</code> seems odd to me, compared to <code>X_reshaped_2</code> which is a more typical use case of <code>CNN</code>s.</p></li>\n<li><p>Is using both models correct?</p></li>\n</ol>\n <python><keras><regression><cnn>",
…
